…
                logger.info(
                    "Epoch {:04d} | Time {:.3f} ({:.3f}) | NFE-F {:.1f} | NFE-B {:.1f} | "
                    "Train Acc {:.4f} | Test Acc {:.4f}".format(
                        itr // batches_per_epoch, batch_time_meter.val, batch_time_meter.avg, f_nfe_meter.avg,
                        b_nfe_meter.avg, train_acc, val_acc
                    )
                )

Namespace(adjoint=False, batch_size=128, data_aug=True, debug=True, downsampling_method='conv', gpu=0, lr=0.1, nepochs=160, network='odenet', save='./test_out', test_batch_size=1000, tol=0.001)
Sequential(
  (0): Conv2d(1, 64, kernel_size=(3, 3), stride=(1, 1))
  (1): GroupNorm(32, 64, eps=1e-05, affine=True)
  (2): ReLU(inplace)
  (3): Conv2d(64, 64, kernel_size=(4, 4), stride=(2, 2), padding=(1, 1))
  (4): GroupNorm(32, 64, eps=1e-05, affine=True)
  (5): ReLU(inplace)
  (6): Conv2d(64, 64, kernel_size=(4, 4), stride=(2, 2), padding=(1, 1))
  (7): ODEBlock(
    (odefunc): ODEfunc(
      (norm1): GroupNorm(32, 64, eps=1e-05, affine=True)
      (relu): ReLU(inplace)
      (conv1): ConcatConv2d(
        (_layer): Conv2d(65, 64, kernel_size=(3, 3), stride=(1, 1), padding=(1, 1))
      )
      (norm2): GroupNorm(32, 64, eps=1e-05, affine=True)
      (conv2): ConcatConv2d(
        (_layer): Conv2d(65, 64, kernel_size=(3, 3), stride=(1, 1), padding=(1, 1))
      )
      (norm3): GroupNorm(32, 64, eps=1e-05, affine=True)
    )
  )
  (8): GroupNorm(32, 64, eps=1e-05, affine=True)
  (9): ReLU(inplace)
  (10): AdaptiveAvgPool2d(output_size=(1, 1))
  (11): Flatten()
  (12): Linear(in_features=64, out_features=10, bias=True)
)
Number of parameters: 208266
C:\Users\sachal\code\590.2\project\torchdiffeq\examples\odenet_mnist.py
import os
import argparse
import logging
import time
import numpy as np
import torch
import torch.nn as nn
from torch.utils.data import DataLoader
import torchvision.datasets as datasets
import torchvision.transforms as transforms

parser = argparse.ArgumentParser()
…
                best_acc = val_acc
            logger.info(
                "Epoch {:04d} | Time {:.3f} ({:.3f}) | NFE-F {:.1f} | NFE-B {:.1f} | "
                "Train Acc {:.4f} | Test Acc {:.4f}".format(
                    itr // batches_per_epoch, batch_time_meter.val, batch_time_meter.avg, f_nfe_meter.avg,
                    b_nfe_meter.avg, train_acc, val_acc
                )
            )

Namespace(adjoint=False, batch_size=128, data_aug=True, debug=True, downsampling_method='conv', gpu=0, lr=0.1, nepochs=160, network='resnet', save='./test_out', test_batch_size=1000, tol=0.001)
Sequential(
  (0): Conv2d(1, 64, kernel_size=(3, 3), stride=(1, 1))
  (1): GroupNorm(32, 64, eps=1e-05, affine=True)
  (2): ReLU(inplace)
  (3): Conv2d(64, 64, kernel_size=(4, 4), stride=(2, 2), padding=(1, 1))
  (4): GroupNorm(32, 64, eps=1e-05, affine=True)
  (5): ReLU(inplace)
  (6): Conv2d(64, 64, kernel_size=(4, 4), stride=(2, 2), padding=(1, 1))
  (7): ResBlock(
    (norm1): GroupNorm(32, 64, eps=1e-05, affine=True)
    (relu): ReLU(inplace)
    (conv1): Conv2d(64, 64, kernel_size=(3, 3), stride=(1, 1), padding=(1, 1), bias=False)
    (norm2): GroupNorm(32, 64, eps=1e-05, affine=True)
    (conv2): Conv2d(64, 64, kernel_size=(3, 3), stride=(1, 1), padding=(1, 1), bias=False)
  )
  (8): ResBlock(
    (norm1): GroupNorm(32, 64, eps=1e-05, affine=True)
    (relu): ReLU(inplace)
    (conv1): Conv2d(64, 64, kernel_size=(3, 3), stride=(1, 1), padding=(1, 1), bias=False)
    (norm2): GroupNorm(32, 64, eps=1e-05, affine=True)
    (conv2): Conv2d(64, 64, kernel_size=(3, 3), stride=(1, 1), padding=(1, 1), bias=False)
  )
  (9): ResBlock(
    (norm1): GroupNorm(32, 64, eps=1e-05, affine=True)
    (relu): ReLU(inplace)
    (conv1): Conv2d(64, 64, kernel_size=(3, 3), stride=(1, 1), padding=(1, 1), bias=False)
    (norm2): GroupNorm(32, 64, eps=1e-05, affine=True)
    (conv2): Conv2d(64, 64, kernel_size=(3, 3), stride=(1, 1), padding=(1, 1), bias=False)
  )
  (10): ResBlock(
    (norm1): GroupNorm(32, 64, eps=1e-05, affine=True)
    (relu): ReLU(inplace)
    (conv1): Conv2d(64, 64, kernel_size=(3, 3), stride=(1, 1), padding=(1, 1), bias=False)
    (norm2): GroupNorm(32, 64, eps=1e-05, affine=True)
    (conv2): Conv2d(64, 64, kernel_size=(3, 3), stride=(1, 1), padding=(1, 1), bias=False)
  )
  (11): ResBlock(
    (norm1): GroupNorm(32, 64, eps=1e-05, affine=True)
    (relu): ReLU(inplace)
    (conv1): Conv2d(64, 64, kernel_size=(3, 3), stride=(1, 1), padding=(1, 1), bias=False)
    (norm2): GroupNorm(32, 64, eps=1e-05, affine=True)
    (conv2): Conv2d(64, 64, kernel_size=(3, 3), stride=(1, 1), padding=(1, 1), bias=False)
  )
  (12): ResBlock(
    (norm1): GroupNorm(32, 64, eps=1e-05, affine=True)
    (relu): ReLU(inplace)
    (conv1): Conv2d(64, 64, kernel_size=(3, 3), stride=(1, 1), padding=(1, 1), bias=False)
    (norm2): GroupNorm(32, 64, eps=1e-05, affine=True)
    (conv2): Conv2d(64, 64, kernel_size=(3, 3), stride=(1, 1), padding=(1, 1), bias=False)
  )
  (13): GroupNorm(32, 64, eps=1e-05, affine=True)
  (14): ReLU(inplace)
  (15): AdaptiveAvgPool2d(output_size=(1, 1))
  (16): Flatten()
  (17): Linear(in_features=64, out_features=10, bias=True)
)
Number of parameters: 576778
Finished loading data
Starting train loop
C:\Users\sachal\code\590.2\project\torchdiffeq\examples\odenet_mnist.py
import os
import argparse
import logging
import time
import numpy as np
import torch
import torch.nn as nn
from torch.utils.data import DataLoader
import torchvision.datasets as datasets
import torchvision.transforms as transforms
…
